Layer (type)                 Output Shape              Param #   
=================================================================
conv2d (Conv2D)              (None, 256, 256, 32)      896       
_________________________________________________________________
batch_normalization (BatchNo (None, 256, 256, 32)      128       
_________________________________________________________________
max_pooling2d (MaxPooling2D) (None, 85, 85, 32)        0         
_________________________________________________________________
dropout (Dropout)            (None, 85, 85, 32)        0         
_________________________________________________________________
conv2d_1 (Conv2D)            (None, 85, 85, 64)        18496     
_________________________________________________________________
batch_normalization_1 (Batch (None, 85, 85, 64)        256       
_________________________________________________________________
conv2d_2 (Conv2D)            (None, 85, 85, 64)        36928     
_________________________________________________________________
batch_normalization_2 (Batch (None, 85, 85, 64)        256       
_________________________________________________________________
max_pooling2d_1 (MaxPooling2 (None, 42, 42, 64)        0         
_________________________________________________________________
dropout_1 (Dropout)          (None, 42, 42, 64)        0         
_________________________________________________________________
conv2d_3 (Conv2D)            (None, 42, 42, 128)       73856     
_________________________________________________________________
batch_normalization_3 (Batch (None, 42, 42, 128)       512       
_________________________________________________________________
conv2d_4 (Conv2D)            (None, 42, 42, 128)       147584    
_________________________________________________________________
batch_normalization_4 (Batch (None, 42, 42, 128)       512       
_________________________________________________________________
max_pooling2d_2 (MaxPooling2 (None, 21, 21, 128)       0         
_________________________________________________________________
dropout_2 (Dropout)          (None, 21, 21, 128)       0         
_________________________________________________________________
flatten (Flatten)            (None, 56448)             0         
_________________________________________________________________
dense (Dense)                (None, 1024)              57803776  
_________________________________________________________________
batch_normalization_5 (Batch (None, 1024)              4096      
_________________________________________________________________
dropout_3 (Dropout)          (None, 1024)              0         
_________________________________________________________________
dense_1 (Dense)              (None, 4)                 4100      
=================================================================
Total params: 58,091,396
Trainable params: 58,088,516
Non-trainable params: 2,880
_________________________________________________________________




TF2_CPU_env

pip install tensorflow==2.0.0-rc1

Epoch 1/10
153/153 [==============================] - 480s 3s/step - loss: 0.6639 - accuracy: 0.8010 - val_loss: 9.6215 - val_accuracy: 0.3034
…
